…
dim = [64, 64] # No. of perceptrons in 1st hidden layer and 2nd hidden layer\nmodel = MLP(input_dim=input_dim, output_dim=output_dim, hidden_dim=hidden_dim) # instantiate the model\n\n\n# inspect the model for a given batch size\nfrom torchinfo import summary\nsummary(model, input_size=(10, 4))\n\n==========================================================================================\nLayer (type:depth-idx)                   Output Shape              Param #\n==========================================================================================\nMLP                                      [10, 3]                   --\n├─Linear: 1-1                            [10, 64]                  320\n├─ReLU: 1-2                              [10, 64]                  --\n├─Linear: 1-3                            [10, 64]                  4,160\n├─ReLU: 1-4                              [10, 64]                  --\n├─Linear: 1-5                            [10, 3]                   195\n==========================================================================================\nTotal params: 4,675\nTrainable params: 4,675\nNon-trainable params: 0\nTotal mult-adds (M): 0.05\n==========================================================================================\nInput size (MB): 0.00\nForward/backward pass size (MB): 0.01\nParams size (MB): 0.02\nEstimated Total Size (MB): 0.0
…
